model/model.npy (npz, 30656 bytes, 5 tensors)

arr_0 f4 [90, 50]
0	0x3cdf711f	0.02727562
1	0x3e3d5b8a	0.1849195
2	0x3d3a9f88	0.045562297
3	0x3cec008d	0.028808856
4	0x3caff597	0.021479411
5	0xbd86a2dd	-0.065740325
6	0x3de724c5	0.1128631
7	0xbe11eafa	-0.14249793
8	0xbdc2b5df	-0.095073454
9	0xbe069dea	-0.13146177
10	0xbc32f30f	-0.0109222075
11	0x3e06ee28	0.13176787
12	0xbea1bfad	-0.3159155
13	0x3d3bfd42	0.045895822
14	0xbd2ba345	-0.041903753
15	0xbe3b18b6	-0.18271145
16	0xbe0de3a0	-0.13856363
17	0x3e4bfbb6	0.19920239
18	0x3d96ad31	0.073572524
19	0xbe116372	-0.14198092
20	0x3edf8d96	0.4366271
21	0xbc7da266	-0.015480613
22	0x3e7b7ab3	0.24558525
23	0x3ddce5f9	0.10786051
24	0xbd9f4ec8	-0.07778698
25	0xbe000383	-0.1250134
26	0x3d10923d	0.035295714
27	0xbd0a278b	-0.033729117
28	0xbb61fca0	-0.0034482852
29	0xbe865ad9	-0.26241186
30	0xbddb616d	-0.10711942
31	0x3e022c96	0.1271232
32	0xbd2903ba	-0.04126332
33	0x3e11b0c5	0.14227588
34	0xbdf64f4a	-0.12026842
35	0x3dfe6e65	0.124234
36	0xbe5bda27	-0.21469937
37	0xbe83ae19	-0.25718763
38	0xbd42b1f2	-0.047532983
39	0xbd7a3a7f	-0.061090942
40	0xbde9894b	-0.1140314
41	0xbd6cad22	-0.0577823
42	0xbdb25b4d	-0.087088205
43	0x3d861e7e	0.06548785
44	0xbe96954a	-0.29410774
45	0x3b41fa6d	0.0029598728
46	0xbcce0fe5	-0.025154063
47	0x3c1deed0	0.009639457
48	0x3dafd99d	0.08586428
49	0x3e8bea73	0.27327308
50	0x3cab3590	0.020899564
51	0x3d310f0c	0.04322724
52	0x3e0bab59	0.13639583
53	0x3e76bd35	0.24095614
54	0x3eb62b6d	0.35580006
55	0x3e55e193	0.20886831
56	0x3c5c2b01	0.013437987
57	0xbcd96744	-0.026538499
58	0xbde7e417	-0.113228016
59	0x3ea1b79c	0.31585395
60	0x3da89c3e	0.08232926
61	0xbd16ce5f	-0.036817905
62	0x3d6bb420	0.057544827
63	0xbd92cae9	-0.07167608
64	0xbceba5dd	-0.028765613
65	0xbd8767fe	-0.06611632
66	0xbd16affa	-0.036788918
67	0xbe571e96	-0.21007761
68	0xbd998083	-0.07495215
69	0x3e1ddc47	0.1541606
70	0xbe471475	-0.19441397
71	0xbe4d4f55	-0.20049794
72	0xbcac1ead	-0.021010721
73	0xbc7d43d4	-0.015458066
74	0xbe2a3ef4	-0.16625577
75	0xbe657ecd	-0.22411652
76	0x3ec431c9	0.38319233
77	0xbdd82acc	-0.10555038
78	0xbd1dd445	-0.038532514
79	0xbe939078	-0.28821158
80	0xbcf2e415	-0.029649774
81	0x3d56542c	0.052326366
82	0xbcb3e673	-0.021960473
83	0x3db7ac51	0.089684136
84	0x3d9ea0c6	0.07745509
85	0x3cc0d13b	0.023537269
86	0xbdf1c6fa	-0.1180553
87	0x3b9810fa	0.0046406956
88	0xbe1134d1	-0.14180304
89	0xbd8c29c7	-0.06843906
90	0xbc6136f8	-0.013746016
91	0x3d970ee6	0.073758885
92	0xbadec5d1	-0.001699621
93	0xbca9cfb2	-0.02072892
94	0xbb3e468d	-0.002903375
95	0x3e82a3e0	0.25515652
96	0xbe222ff8	-0.15838611
97	0x3d059ff4	0.032623246
98	0xbdb0d0a4	-0.08633545
99	0xbd095311	-0.033526484
100	0x3d02e80b	0.031959575
101	0xbe09325c	-0.13398117
102	0xbc9022d1	-0.017594727
103	0x3e0b5c84	0.1360951
104	0xbd9290cc	-0.07156524
105	0x3e278a37	0.16361319
106	0x3d9cfc29	0.07665283
107	0xbd65b6dd	-0.056082595
108	0x3e447aba	0.19187441
109	0x3e5fdbcb	0.21861188
110	0xbde453c5	-0.1114879
111	0xbbcceac0	-0.0062535703
112	0xbe43625a	-0.19080487
113	0xbac0e431	-0.0014716444
114	0xbd85d1d2	-0.06534161
115	0xbd12fe21	-0.035886887
116	0xbe1e3bc3	-0.15452485
117	0x3dcf7179	0.10129065
118	0x3e0a391e	0.13498351
119	0x3c46e6dd	0.012140003
120	0x3e441b25	0.1915098
121	0x3e253846	0.16134748
122	0xbd26cd23	-0.040722977
123	0xbbf8c3cb	-0.0075916997
124	0xbe390c19	-0.18071021
125	0xbe7d4663	-0.24733882
126	0x3e52b155	0.2057546
127	0x3e239d27	0.15977918
128	0x3da40044	0.08007863
129	0x3e4c2e04	0.19939429
130	0x3d807eba	0.06274171
131	0xbd12cfd3	-0.035842728
132	0x3e68bce3	0.22728305
133	0xbdeff13a	-0.11715932
134	0x3ddc499b	0.10756227
135	0x3dcea89a	0.10090752
136	0xbd108bef	-0.0352897
137	0x3d8aec1f	0.06783318
138	0xbd5f279a	-0.054481126
139	0xbdd551c6	-0.10415988
140	0xbdf75b91	-0.12078012
141	0xbd806882	-0.06269933
142	0xbd85925e	-0.06522058
143	0xbe4f4d61	-0.20244361
144	0x3e21ba82	0.15793803
145	0x3d81ba0e	0.06334315
146	0x3cd734be	0.026270267
147	0xbe033ff4	-0.12817365
148	0x3cb6b035	0.022300819
149	0xbe6a5fca	-0.22888103
150	0xbcde2df6	-0.027121525
151	0xbd19a64f	-0.03751212
152	0xbc9b4064	-0.018951602
153	0x3e4273a1	0.18989421
154	0xbd88ef13	-0.06686225
155	0x3e15cb4a	0.1462833
156	0x3e39ce65	0.1814514
157	0x3e7fa62c	0.24965733
158	0x3e01130b	0.1260492
159	0xbe48d4aa	-0.19612375
160	0xbb8bbca2	-0.00426443
161	0xbdde88eb	-0.10865959
162	0x3dbd940c	0.09256753
163	0xbb894010	-0.004188545
164	0x3d37a953	0.044839215
165	0x3d1edfe7	0.03878775
166	0x3d85abfc	0.06526944
167	0x3bef0694	0.0072944853
168	0xbe0776d1	-0.13228919
169	0x3d8c0e21	0.068386324
170	0x3e191cac	0.14952344
171	0xbc97e7e2	-0.018543188
172	0x3d21515f	0.039384242
173	0x3cc37660	0.023860157
174	0xbdf359c0	-0.11882353
175	0xbc95090d	-0.018192792
176	0x3d5d88e8	0.054085642
177	0xbd704884	-0.058662906
178	0xbd2accaa	-0.04169909
179	0xbddcb7b9	-0.1077723
180	0x3de8f7c5	0.11375383
181	0xbdc65fcb	-0.0968624
182	0xbd1a14c7	-0.03761747
183	0x3d291b2a	0.04128567
184	0xbd175ef3	-0.036955785
185	0xbd6a5e8a	-0.057219066
186	0x3ba60616	0.0050666435
187	0xbe114512	-0.14186504
188	0xbe8b116a	-0.27161723
189	0x3c2dcd96	0.010608098
190	0xbca697e2	-0.020336095
191	0xbd092607	-0.03348353
192	0xbdabf1bb	-0.08395716
193	0xbd4b50d8	-0.049637645
194	0xbe4b017b	-0.19824784
195	0x3df1546b	0.117836796
196	0xbe0dbd4b	-0.13841741
197	0x3d2749bf	0.040841814
198	0xbe9711b3	-0.2950569
199	0x3d96e89c	0.073685855
200	0x3c17499a	0.009233857
201	0xbd04aa33	-0.032388877
202	0xbd520441	-0.051273588
203	0xbda15feb	-0.07879623
204	0xbcdb6e85	-0.026786098
205	0x3da2ad2a	0.07943185
206	0x3d48b04c	0.048996255
207	0x3e07df29	0.13268723
208	0x3e1d1b93	0.1534255
209	0x3d620197	0.055177297
210	0x3d192f16	0.03739842
211	0xbdb699c0	-0.08916044
212	0xbcb25139	-0.021767246
213	0xbde407cb	-0.11134299
214	0x3e37a5dc	0.17934364
215	0xbd95270d	-0.07282839
216	0xbd8845c9	-0.066539355
217	0x3e015e29	0.12633575
218	0xbd3c2788	-0.045936137
219	0x3e0792d8	0.1323961
220	0x3d93ed51	0.07222999
221	0x3ca6fdcb	0.02038469
222	0x3d32b350	0.043628037
223	0xbe05c47d	-0.13063236
224	0xbd9a288e	-0.075272664
225	0xbdf75647	-0.12077003
226	0xbe41a5be	-0.18910882
227	0xbd8b35b5	-0.06797353
228	0x3c883579	0.01662706
229	0x3e465f35	0.19372256
230	0x3cf2c51b	0.029635003
231	0x3dabbd26	0.083856866
232	0xbcc6e961	-0.024281206
233	0xbd2ff9b8	-0.04296276
234	0xbce749b2	-0.028233383
235	0x3e2579b1	0.16159703
236	0xbe22c443	-0.1589518
237	0x3c27fe39	0.0102534825
238	0x3d4d9fda	0.050201274
239	0xbdee9b41	-0.11650706
240	0x3dcdb21a	0.10043736
241	0xbd4369fa	-0.04770849
242	0x3d22e813	0.039772104
243	0x3c8685da	0.016421247
244	0x3dbfff4c	0.09374866
245	0x3d9c8898	0.07643241
246	0x3ce63e60	0.028105915
247	0xbe444909	-0.19168486
248	0x3e6d94ae	0.23201248
249	0x3d8d26a1	0.068921335
250	0xb97bf0b6	-0.00024026897
251	0xbd709124	-0.058732167
252	0xbd619a79	-0.055078957
253	0xbeafb74c	-0.34319532
254	0xbc3ae86d	-0.011407954
255	0x3dcd52d6	0.10025565

arr_1 f4 [1, 50]
0	0xbd80c680	-0.06287861
1	0x3c28bdc5	0.010299151
2	0xbd637d83	-0.05553962
3	0x3d14d3ab	0.036334675
4	0xbd45d489	-0.048298392
5	0x3d91445f	0.07093119
6	0x3d60a80c	0.054847762
7	0x3d7c26a1	0.061560277
8	0x3c6852d7	0.014179907
9	0x3c8a5cd7	0.016889973
10	0x3ca26a72	0.019826148
11	0x3d00d961	0.03145731
12	0x3d423522	0.047413953
13	0x3a89ef4e	0.0010523589
14	0x3c31c6d2	0.010850625
15	0xbbf4ea3b	-0.0074742115
16	0x3d5b9ec7	0.05361822
17	0xbc9b5aa5	-0.018964121
18	0xbd5ac35e	-0.053408973
19	0xbd4d09e2	-0.050058253
20	0x3d358dc3	0.044324648
21	0x3cf7b392	0.030236993
22	0x3c7b0767	0.015321589
23	0xbc273bb1	-0.010207103
24	0xbd3718b1	-0.044701282
25	0xbbb03e4f	-0.0053785215
26	0xbc35c4f8	-0.011094324
27	0xbd73496b	-0.05939619
28	0xbd725587	-0.059163596
29	0x3d62615b	0.055268627
30	0x3d0bb629	0.03410927
31	0x3db3a53c	0.0877175
32	0xbcfaba49	-0.030606406
33	0x3bcf04b5	0.0063177
34	0xbcbbe875	-0.022937993
35	0xbc2e6710	-0.010644689
36	0x3ca39fe1	0.019973697
37	0x3c3caaa4	0.011515293
38	0x3c7d399b	0.015455629
39	0xbd480073	-0.048828553
40	0xbd237e14	-0.03991516
41	0x3d0735c0	0.033010244
42	0xbd14f35b	-0.036364894
43	0x3c72de9a	0.01482358
44	0x3c968b61	0.018377008
45	0xbcb77a3a	-0.02239715
46	0xb95fcd14	-0.00021343335
47	0x3c55e787	0.013055689
48	0x3c8bd310	0.017068416
49	0x3c9c83fc	0.019105904

arr_2 f4 [50, 50]
0	0xbd47a4f1	-0.048741285
1	0xbe17c9f4	-0.14823133
2	0x3d7209a2	0.059091218
3	0xbdc9dc85	-0.09856514
4	0x3e4ce5d0	0.20009542
5	0x3e027d7b	0.1274318
6	0x3cc0d296	0.023537915
7	0x3b3018c2	0.0026870226
8	0xbe933d7f	-0.28757855
9	0xbde26564	-0.11054495
10	0x3cae58a6	0.021282505
11	0xbd987016	-0.07443254
12	0xbd101c64	-0.035183325
13	0x3cbef2e2	0.023309175
14	0x3e01ca79	0.12674893
15	0xbde03795	-0.109481014
16	0xbd1c78a1	-0.03820098
17	0x3d876b1b	0.066122256
18	0xbc8ae59a	-0.016955186
19	0x3eaa2b90	0.3323636
20	0xbd518765	-0.051154513
21	0x3e24230f	0.16028999
22	0xbca9bad5	-0.020718971
23	0xbde855c4	-0.113444835
24	0xbe6baa14	-0.23014098
25	0xbcbbac23	-0.02290923
26	0x3d896d29	0.06710274
27	0xbd9c2fb7	-0.076262884
28	0x3e028c02	0.12748721
29	0xbdbe7fea	-0.093017414
30	0x3df5a4d6	0.119943306
31	0xbe593826	-0.21212825
32	0x3e012967	0.1261345
33	0x3e915393	0.28384075
34	0xbd78823a	-0.06067107
35	0x3e8a587a	0.27020627
36	0xbe57e7a2	-0.21084455
37	0x3dfe24ad	0.12409339
38	0x3d1eba4c	0.038751885
39	0x3d8a4541	0.067514904
40	0x3e412052	0.18859985
41	0x3e158978	0.14603221
42	0xbd72b7c8	-0.0592573
43	0x3de309f4	0.11085883
44	0x3e0783e5	0.13233908
45	0xbe5e4eb4	-0.2170971
46	0xbe9a9447	-0.30191252
47	0x3d75e13a	0.060029246
48	0x3cdee07c	0.027206652
49	0x3e0be306	0.13660821
50	0xbadea0f8	-0.0016985228
51	0x3d827926	0.063707635
52	0xbc2e8a43	-0.010653081
53	0xbca4602a	-0.020065386
54	0x3c824a3c	0.015904538
55	0x3d402702	0.0469122
56	0x3db12003	0.08648684
57	0x3e91c14e	0.28467792
58	0xbdd96298	-0.106145084
59	0xbd0da204	-0.03457834
60	0x3e8fd879	0.28094843
61	0x3d411267	0.04713669
62	0xbe5eea85	-0.2176915
63	0xbcb06ca5	-0.02153618
64	0xbe42d806	-0.19027719
65	0x3d0f6a74	0.03501363
66	0xbe117689	-0.14205374
67	0xbdaf9af1	-0.085744746
68	0xbdbd18ac	-0.092332214
69	0x3d047ae9	0.03234378
70	0x3e03e64a	0.12880817
71	0x3e023042	0.12713721
72	0xbe21ec28	-0.15812743
73	0xbe470170	-0.19434142
74	0xbe570f35	-0.21001895
75	0x3e09211e	0.1339154
76	0xbe2202f9	-0.15821446
77	0xbc8654d9	-0.01639788
78	0xbd908a75	-0.070576586
79	0x3e0d32be	0.13788888
80	0xbd5a556f	-0.053304132
81	0x3e21d556	0.15804037
82	0xbe22a612	-0.15883663
83	0xbe04d75a	-0.12972775
84	0xbe46962b	-0.19393222
85	0xbd9fc2d3	-0.07800832
86	0xbe86d103	-0.26331338
87	0xbe63df4a	-0.22253147
88	0xbdb7d917	-0.089769535
89	0xbd681e49	-0.056669507
90	0xbdd7e5a3	-0.105418466
91	0xbc4f3011	-0.012645737
92	0x3dd846eb	0.105604015
93	0x3a6da03e	0.00090647105
94	0x3dfa7685	0.12229637
95	0xbc25327b	-0.010082836
96	0x3e0c045e	0.13673541
97	0xbe6b6653	-0.22988252
98	0x3f002c60	0.5006771
99	0x3d6148ef	0.055001196
100	0x3c7a949f	0.015294223
101	0x3e4b5fba	0.19860736
102	0x3d2a1e8d	0.04153304
103	0x3e13cb30	0.14432979
104	0xbd482f3d	-0.048873175
105	0xbd2bdec3	-0.04196049
106	0x3d99ceee	0.07510172
107	0xbe0328fd	-0.12808605
108	0xbcc3fc44	-0.023924
109	0xbe9937d9	-0.2992542
110	0x3d09af65	0.033614535
111	0xbc840cc6	-0.016119372
112	0x3dcd47b5	0.10023443
113	0x3dc6bf56	0.09704463
114	0x3d9c7bbc	0.07640788
115	0xbdbf21bc	-0.09332606
116	0x3dcb1b92	0.09917368
117	0x3db81b7a	0.08989616
118	0xbe87c89f	-0.2652025
119	0xbc845b8c	-0.016156934
120	0x3dfe6b2a	0.12422784
121	0x3d743434	0.059620097
122	0x3dfb5b2e	0.122732505
123	0xbd9027c5	-0.070388354
124	0x3de9ddd8	0.114192665
125	0xbdc1a67d	-0.09455583
126	0xbe097940	-0.1342516
127	0xbdeea6fb	-0.11652943
128	0xbe1881dc	-0.14893287
129	0x3de61921	0.11235262
130	0xbda85cce	-0.08220826
131	0xbe05f697	-0.13082348
132	0xbe768b8f	-0.24076675
133	0xbc5cca6e	-0.013475997
134	0xbcb22934	-0.021748163
135	0x3c49d529	0.012318888
136	0x3e0abad2	0.13547829
137	0x3e35fe5a	0.17772809
138	0x3e154930	0.145787
139	0xbe07ed5a	-0.13274136
140	0xbd55950b	-0.05214409
141	0xbb0b2e48	-0.0021237303
142	0xbe27086f	-0.16311811
143	0x3e0ba5ca	0.13637462
144	0xbe05d145	-0.13068111
145	0xbd39a53d	-0.0453236
146	0xbd8befba	-0.068328336
147	0xbe2e1851	-0.17001463
148	0xbe784948	-0.24246705
149	0xbe4d45b8	-0.20046127
150	0xbddd108c	-0.10794172
151	0x3d39de1a	0.04537783
152	0x3dab5c0c	0.08367166
153	0x3da93c8e	0.08263503
154	0xbe2dceaa	-0.16973367
155	0x3e01744d	0.12642021
156	0x3dc7bdda	0.09753008
157	0x3e35b3f2	0.17744425
158	0x3d9885ad	0.07447372
159	0xbca90440	-0.02063191
160	0xbe2ad71a	-0.16683617
161	0xbe002baf	-0.12516664
162	0x3df1e0e6	0.11810474
163	0x3d460288	0.048342258
164	0x3e2cbb0a	0.16868225
165	0xbe07c14d	-0.13257332
166	0xbd087245	-0.0333121
167	0x3e08590e	0.13315222
168	0x3c84723d	0.016167754
169	0xbde21ca2	-0.110406175
170	0x3d61ba2e	0.055109195
171	0x3d9a5bab	0.075370155
172	0x3dd0a8ff	0.101884834
173	0x3ddd2921	0.1079886
174	0xbe2e6924	-0.17032295
175	0x3dd547e5	0.104141034
176	0x3d1fe7c5	0.039039392
177	0x3d9ade5d	0.07561944
178	0x3d99a631	0.075024016
179	0xbe851239	-0.25990465
180	0x3d5cadc6	0.05387666
181	0x3c9dc0b2	0.019256923
182	0x3d013535	0.031544883
183	0xbd94d5c9	-0.07267339
184	0x3c987354	0.01860968
185	0x3d2fd9f9	0.042932484
186	0x3c8575a9	0.016291456
187	0x3ddac7bf	0.1068263
188	0xbe3dfb6c	-0.18552941
189	0xbcbf352a	-0.02334078
190	0xbe2c4151	-0.16821791
191	0xbe190052	-0.14941528
192	0xbdaf5ca3	-0.08562591
193	0xbddda47d	-0.10822389
194	0xbd724fc6	-0.05915811
195	0x3d1204c2	0.03564907
196	0x3dad7a0b	0.084705435
197	0x3dd35691	0.103192456
198	0x3da8daa6	0.08244829
199	0x3ce94538	0.028475389
200	0xbc8a05b3	-0.01684842
201	0x3c9f147a	0.019418944
202	0xbd6b72ee	-0.057482652
203	0xbdbd34d9	-0.092385955
204	0xbe2ee03f	-0.1707773
205	0x3dd91bb0	0.10600984
206	0x3df2fd1d	0.11864684
207	0x3dbea219	0.093082614
208	0x3e74095d	0.23831697
209	0x3d325154	0.04353459
210	0xbd8cbad5	-0.06871573
211	0xbcfb9304	-0.030709751
212	0x3e13e5f6	0.14443192
213	0xbc986e51	-0.01860729
214	0x3ce20df1	0.027594538
215	0x3aed4a04	0.0018103723
216	0xbe7fd13a	-0.24982157
217	0xbdc69ed9	-0.096982665
218	0xbe37c0c6	-0.17944631
219	0x3dd11699	0.10209388
220	0xbd63b1cb	-0.05558948
221	0x3e490289	0.19629873
222	0xbdd78082	-0.10522558
223	0x3c90c3d8	0.01767151
224	0x3c3edea0	0.011649758
225	0xbd89fde2	-0.067378774
226	0x3d5b4c29	0.05353943
227	0xbe007849	-0.12545885
228	0x3db44e4e	0.08803998
229	0x3dd4f6cb	0.103986345
230	0x3cab5cb6	0.020918231
231	0xbe815357	-0.25258896
232	0xbddd691f	-0.10811066
233	0x3e3b9cdd	0.18321557
234	0x3e4ca6a5	0.19985445
235	0x3caf20f5	0.02137802
236	0x3d4d3973	0.050103616
237	0x3c996cbe	0.01872861
238	0x3c18696f	0.009302481
239	0xbd43f94e	-0.047845177
240	0xbdd9ba4a	-0.10631235
241	0xbd8c1f4b	-0.06841906
242	0xbdd481e1	-0.10376335
243	0xbdfc7029	-0.1232608
244	0xbd886727	-0.066603
245	0xbdc003b4	-0.09375706
246	0x3d860ec2	0.065457836
247	0xbdc672b6	-0.09689848
248	0xbe26bdc9	-0.16283335
249	0x3e237143	0.15961175
250	0xbeade087	-0.33960363
251	0xbdc2e01c	-0.09515402
252	0xbea0316e	-0.31287712
253	0x3e4b4bb0	0.19853091
254	0xbd9bc31b	-0.07605573
255	0x3d9ef5f6	0.07761757

arr_3 f4 [50, 6]
0	0xbdd5de88	-0.10442835
1	0xbc02e1e8	-0.007988431
2	0x3d5399ac	0.051660225
3	0x3dda7e82	0.10668661
4	0x3e3d367b	0.18477814
5	0x3e8c17ce	0.27361912
6	0x3d4d3840	0.050102472
7	0xbe847ff9	-0.25878885
8	0x3cb933cd	0.022607708
9	0xbe6434de	-0.22285792
10	0xbe74b64b	-0.23897664
11	0x3c95d0a4	0.018287964
12	0xbd71ab7c	-0.05900143
13	0x3cf43426	0.029810023
14	0xbd4220a6	-0.047394417
15	0x3e6f9ea9	0.23400368
16	0x3e3b5eaa	0.1829783
17	0x3e8349dc	0.25642288
18	0x3cfb903b	0.030708423
19	0x3e0d4f7a	0.13799849
20	0x3da2ea13	0.07954802
21	0xbd7e8c2c	-0.062145397
22	0xbed3285f	-0.41241738
23	0xbe6127b6	-0.21987805
24	0x3de22f31	0.11044157
25	0xbe4ef2c9	-0.20209803
26	0x3df23337	0.11826175
27	0xbda16e99	-0.07882423
28	0x3e91d93d	0.28486052
29	0xbe33f6b3	-0.17574577
30	0xbe6af307	-0.2294427
31	0x3ebe1f42	0.37133223
32	0x3e13a253	0.1441739
33	0xbe20d1c4	-0.15705019
34	0xbcd30bad	-0.025762403
35	0xbe8e6c02	-0.27816778
36	0x3de667a7	0.11250239
37	0x3e287daf	0.16454194
38	0x3e902525	0.2815334
39	0xbe9f22e5	-0.3108131
40	0xbe9ba5ea	-0.3040002
41	0xbe773e89	-0.24144949
42	0xbe52c7ca	-0.20584026
43	0xbe27ac13	-0.16374235
44	0x3db671e5	0.089084424
45	0xbe2da531	-0.16957547
46	0xbe82a530	-0.25516653
47	0xbece8a95	-0.40340105
48	0xbdb85ea9	-0.0900243
49	0x3eb3be98	0.3510635
50	0xbdd5ccfa	-0.10439487
51	0x3d837d45	0.06420378
52	0xbe55a700	-0.20864487
53	0xbe8efcda	-0.27927285
54	0x3c55bf80	0.013046145
55	0x3e37ab6a	0.17936483
56	0xbebeb62f	-0.3724837
57	0xbe38788f	-0.1801474
58	0xbedb8f96	-0.42882985
59	0xbdf503e5	-0.119636334
60	0x3d584830	0.05280322
61	0xbd7f5ee9	-0.062346373
62	0xbca6e15d	-0.020371133
63	0xbe9d07ce	-0.30670017
64	0xbeb22541	-0.34794047
65	0xbd460c96	-0.048351847
66	0x3e0875e3	0.1332622
67	0x3c0089f8	0.007845394
68	0x3df15cf4	0.117853075
69	0xbedce4bd	-0.43143263
70	0xbecdd35a	-0.4020031
71	0xbe5ea599	-0.21742858
72	0xbe5179b0	-0.20456576
73	0x3f05fa20	0.52334785
74	0xbde36e1c	-0.11104986
75	0x3dbc7b8a	0.09203251
76	0x3d0e011c	0.034669027
77	0xbe8df065	-0.2772247
78	0x3f002f14	0.50071836
79	0xbe2dc2b3	-0.16968803
80	0x3bf42191	0.0074502905
81	0xbd76ab4a	-0.060221948
82	0xbe197678	-0.14986598
83	0xbe6dbca4	-0.23216492
84	0xbd8a61de	-0.06756948
85	0xbe05dade	-0.13071772
86	0xbe1a5ca2	-0.15074399
87	0xbd5c1cf2	-0.053738542
88	0xbe1bb263	-0.15204768
89	0x3d8491b4	0.06473103
90	0x3e2ce132	0.1688278
91	0xbc4148c9	-0.0117971385
92	0xbdb37dc0	-0.08764219
93	0xbe5412df	-0.20710324
94	0x3d451fd6	0.048126064
95	0xbe146864	-0.14492947
96	0xbe6fb4bb	-0.23408787
97	0xbe36e60c	-0.17861193
98	0x3d4440c8	0.047913343
99	0x3e551c96	0.20811686
100	0xbe95c923	-0.29255018
101	0xbee89a7c	-0.45430362
102	0xbe2fd998	-0.17172849
103	0xbd9d558f	-0.07682335
104	0xbe04b545	-0.12959774
105	0x3da530ca	0.080659464
106	0xbc0c565a	-0.00856551
107	0x3ac2ce42	0.0014862495
108	0xbe11b611	-0.14229609
109	0xbdbf1cc7	-0.09331661
110	0x3dbf4985	0.093401946
111	0xbe5414d3	-0.20711069
112	0x3d03096b	0.031991404
113	0x3e08863a	0.13332453
114	0xbda20cfb	-0.07912632
115	0xbe099c36	-0.13438496
116	0x3e366aa3	0.17814116
117	0x3e4eba47	0.20188247
118	0xbe0d01d6	-0.13770232
119	0x3e870161	0.2636824
120	0x3e40b86f	0.18820356
121	0x3d837f22	0.06420733
122	0x3e25d38e	0.16193983
123	0xbe1eb83a	-0.15499964
124	0xbe9a969f	-0.3019304
125	0xbebeb4dd	-0.37247363
126	0x3dede5c5	0.11616091
127	0x3e4479f5	0.19187148
128	0x3dad266b	0.08454593
129	0x3e24d4e7	0.16096841
130	0xbdf2f59a	-0.11863251
131	0xbed38909	-0.41315487
132	0xbea6e971	-0.32599977
133	0x3d0aff31	0.033934776
134	0x3de7d6db	0.11320277
135	0x3dd65a7d	0.10466478
136	0x3dd28782	0.10279752
137	0xbe22e942	-0.15909293
138	0xbd2143ac	-0.039371178
139	0x3d3b5f3b	0.045745116
140	0xbde34406	-0.11096959
141	0xbebfa402	-0.37429816
142	0xbcf6db59	-0.03013389
143	0x3e19b888	0.150118
144	0x3de64001	0.112426765
145	0xbb2f5bc7	-0.0026757584
146	0x3e43c96b	0.19119804
147	0xbde47c3f	-0.111565106
148	0xbe9f4816	-0.31109685
149	0xbc858983	-0.016300922
150	0xbdb35a58	-0.08757466
151	0x3cf8a2fb	0.030351153
152	0x3e8ebcea	0.27878505
153	0xbe3069e0	-0.17227888
154	0xbe56b4f6	-0.20967469
155	0xbd93778d	-0.07200537
156	0xbe10f71e	-0.14156768
157	0x3dc82471	0.09772576
158	0xbd7125f9	-0.058874104
159	0xbe01b406	-0.1266633
160	0x3e0994c4	0.13435656
161	0xbee3522e	-0.44398636
162	0x3e342a36	0.17594227
163	0xbdb703dd	-0.08936284
164	0xbcde7290	-0.027154237
165	0xbe4501b8	-0.19238937
166	0x3e8f7820	0.28021336
167	0x3ee4c476	0.44681138
168	0x3d4871c8	0.048936635
169	0x3db69c52	0.089165345
170	0x3e7a406a	0.24438635
171	0x3e50f89a	0.20407334
172	0xbd634141	-0.055482153
173	0xbdc81020	-0.097687006
174	0xbe57822d	-0.21045752
175	0xbe67fccd	-0.2265503
176	0xbdada740	-0.08479166
177	0x3e15aea8	0.14617407
178	0xbe185db8	-0.14879501
179	0xbe13aec1	-0.14422132
180	0x3e2803f1	0.16407754
181	0x3e390bd9	0.18070926
182	0x3ec42017	0.38305733
183	0xbe98c418	-0.29837108
184	0xbd90e6d1	-0.07075275
185	0x3d8980ec	0.06714043
186	0xbe0e9a8e	-0.13926145
187	0xbc844ba1	-0.016149344
188	0x3c8b27aa	0.016986687
189	0xbed7e9c7	-0.42170545
190	0x3e90be4e	0.2827019
191	0xbee5c33e	-0.4487552
192	0x3e514d04	0.20439535
193	0xbe6478b5	-0.22311671
194	0xbd5c5555	-0.053792316
195	0x3df1889e	0.11793636
196	0x3e803472	0.25040013
197	0x3e9496c2	0.2902127
198	0x3e58c186	0.21167573
199	0x3e64ff04	0.22362906
200	0xbdb04329	-0.0860656
201	0xbe0ff6cf	-0.14058994
202	0xbeef60c7	-0.46753523
203	0xbd27e36f	-0.040988382
204	0xbe145ce8	-0.14488566
205	0xbd8f2d18	-0.06991023
206	0xbdc73ec8	-0.097287714
207	0xbdfbc021	-0.12292505
208	0x3e08d17d	0.13361163
209	0xbe27b90b	-0.16379182
210	0x3e13f0a1	0.14447261
211	0x3e7aa5a3	0.24477248
212	0xbe9794f7	-0.2960584
213	0x3db21c82	0.08696844
214	0xbc0c4201	-0.008560658
215	0xb9587063	-0.00020641233
216	0xbea651b9	-0.32484224
217	0x3d559a74	0.05214925
218	0xbe23a676	-0.15981469
219	0x3b83d568	0.0040232427
220	0x3c206c81	0.009791494
221	0xbe2eabd4	-0.17057735
222	0xbe9a566d	-0.30144063
223	0x3e469e7d	0.19396396
224	0xbe50240a	-0.20326248
225	0xbeb5a077	-0.35473987
226	0x3e4cd262	0.2000213
227	0xbd871d18	-0.06597346
228	0x3d4e790e	0.050408415
229	0x3e9fce81	0.31212237
230	0x3db707c6	0.089370295
231	0x3d9fd74a	0.07804735
232	0x3e372595	0.1788543
233	0xbd578bda	-0.052623607
234	0x3c9bad2b	0.019003471
235	0x3daab9f0	0.08336246
236	0xbe505aa7	-0.20347081
237	0x3e09b931	0.13449551
238	0xbd510552	-0.051030464
239	0xbd23a74b	-0.039954465
240	0xbe37f760	-0.1796546
241	0x3ec26a3d	0.37971678
242	0xbe0de414	-0.13856536
243	0xbd05dc8c	-0.032681033
244	0xbe44f947	-0.19235717
245	0xbe25ffb8	-0.1621083
246	0x3e47d27d	0.19513889
247	0xbd770054	-0.060303047
248	0x3e1265ab	0.14296596
249	0xbda3f817	-0.08006304
250	0xbe0f6dbd	-0.14006706
251	0x3d2e2d5f	0.042523738
252	0xbdd3a7a0	-0.10334706
253	0xbe5879a2	-0.21140149
254	0x3e0d4d5b	0.1379904
255	0xbd81aa38	-0.06331295

arr_4 f4 [1, 6]
0	0xbdc93f10	-0.09826481
1	0x3dda1aa5	0.10649613
2	0x3d94f5fc	0.0727348
3	0xbd1cc505	-0.03827383
4	0xbdab3196	-0.08359067
5	0xbe828faa	-0.25500232
